testdata/dnn/onnx/models/conv2dPadding.onnx (onnx, 973 bytes, 2 tensors)

layer.weight f4 [6, 3, 3, 3]
00000000: 61e5 6cbd 436b c23d 008f ad3d c194 1bbe
00000010: 3704 3fbe e88a 493d d15e b4bd 4ed0 af3b
00000020: a172 da3c e462 40bd f02d 93bd 1905 82bd
00000030: fe87 11be fd39 073e 72ac 373e b246 393d
00000040: 5a77 cb3d b9e6 39be ffda 3e3e 2df8 25be
00000050: 1ff2 2fbe d2e0 e3bb d6fb a3bd 20ea 3d3e
00000060: 463d 07be b10b 86bd b2e0 113e 9e4c bd3c
00000070: 01bd 393d 2a95 b3bd 08ef d2bd 5181 393e
00000080: 9f24 02be 670f 1ebc 87ea 213d bc35 15bd
00000090: 4d44 853d 17e8 c4bd 11bb d73c 93d8 76bd
000000a0: 8b76 2ebd b6e0 183e 9fa0 8bbc 378a 96bd
000000b0: b7cc 23be c735 1fbd a3dd 3e3d e273 4c3b
000000c0: fceb 3cbd fc98 f8bd d8b8 edbd 36e2 54bd
000000d0: 18b5 bdbd ef68 05be 0167 d0bd deb9 14bd
000000e0: 1aa0 a2bd 1a05 3abc b10c bc3d d23f 84ba
000000f0: 55fd bbbd 02d8 10be cc05 7a3d c88c 143e
00000100: 9736 143e 759a 1b3e ef7f f33b 6d69 15be
00000110: d8c7 3cbe a097 e1bd 0efb 3f3e 753e 69bd
00000120: 7aa1 023c af65 bfbd 5a76 f23d ee5f 3e3e
00000130: 6596 e2bd 3f22 dabd b8e2 0ebe 5538 9c3d
00000140: 4d04 a7bc 887f 24be c72f 4cbd 6283 16be
00000150: ae5b c3bd b007 6ebd c82d 013d 1658 c73d
00000160: 27ba acbd e4a6 fcbd 2289 10be 2a0d 1dbe
00000170: 7d4e f2bd ee34 293e e018 813c 8631 aebc
00000180: dfc1 93bb 1201 353e e4b5 5a3d f3a7 9fbd
00000190: 7697 983d 43bd 3ebe aa5b cf3d beda 82bd
000001a0: b8c7 05bd 5d87 bfbd 7255 943d 5efc c0bd
000001b0: dbce 433e c117 d83d 5763 0d3e 169f 4c3c
000001c0: e2ae 1dbe cbfc d83b 1eaa 1cbd 36b2 193e
000001d0: e9e7 3c3e 7cbb 413e d962 41be 8c79 ca3d
000001e0: 1733 30be ebca 933a ec4f 543d dff0 123d
000001f0: 4aac fabd 134c 173e 22dc 79bd 68d8 92bd
00000200: 8358 c4bd 53c5 f73d 6670 903c 75a2 25be
00000210: c1c8 ce3d 0b6e dfbc df52 843d 1788 dc3d
00000220: 402b f43d d7cc 733d c97b 11bd 0031 92bd
00000230: b93b 913c bc6b a6bd 5670 27be 1164 35be
00000240: 8197 3d3d 6628 90bd 3478 c2bd c068 cb3d
00000250: e076 e53d 4618 05be 5877 b63d e70a 1e3e
00000260: 44c7 623d 0816 893d 743b ff3c ce56 4dbd
00000270: 6256 e63d 0bd1 c0bc e1f0 32be eabb b43d
00000280: 48ee 0cbd f30e b83c
-0.05783594 0.09493115 0.08474541 -0.15193464 -0.18653952 0.049204737 -0.08807147 0.005365408
0.026665987 -0.04696931 -0.07186496 -0.063486286 -0.14212033 0.13205715 0.17936876 0.045233436
0.09934874 -0.1815442 0.18638228 -0.16207953 -0.17182206 -0.006954291 -0.08007018 0.18546343
-0.13206968 -0.06545199 0.1424587 0.023107823 0.045346264 -0.08768685 -0.10299498 0.18115737
-0.12709282 -0.009647227 0.039530303 -0.0364282 0.06507168 -0.0961458 0.026334317 -0.060265135
-0.04259352 0.1492947 -0.017044364 -0.07350581 -0.15996061 -0.038869645 0.046598088 0.0031197001
-0.04612349 -0.121385545 -0.11607522 -0.051973544 -0.092630565 -0.1302831 -0.101758964 -0.03631007
-0.07940693 -0.011353755 0.09182108 -0.0010089821 -0.091791786 -0.141449 0.061040685 0.14506829
0.1447395 0.1519564 0.0074310224 -0.14590998 -0.1843561 -0.11015248 0.18748114 -0.05694433
0.007973069 -0.093455665 0.1183898 0.18591282 -0.11063842 -0.10651063 -0.13953674 0.07627932
-0.020387793 -0.16064274 -0.04985025 -0.14698556 -0.09538971 -0.0581128 0.0315378 0.09733598
-0.08433943 -0.12336519 -0.14114812 -0.15337053 -0.11831377 0.16524097 0.015758932 -0.021263849
-0.004509195 0.1767619 0.05339612 -0.07795706 0.07450764 -0.18626885 0.101249054 -0.06389378
-0.03266117 -0.0935199 0.0724286 -0.09423135 0.19121878 0.10551406 0.13807426 0.012489101
-0.15398744 0.006621932 -0.038248174 0.15009388 0.18447842 0.18919176 -0.18885364 0.098864645
-0.17206989 0.0011275684 0.051834032 0.035874244 -0.12239893 0.14775114 -0.06100095 -0.071701825
-0.09587195 0.120981835 0.01763172 -0.16175254 0.100968845 -0.027274152 0.06461119 0.107681446
0.11922312 0.059521522 -0.03551844 -0.07138252 0.017728673 -0.081260175 -0.16351447 -0.17713954
0.046287064 -0.070389554 -0.09495583 0.09932089 0.11204314 -0.12997541 0.08909482 0.15433846
0.055365816 0.06693655 0.03115628 -0.05013161 0.11246945 -0.02353718 -0.174747 0.08824904
-0.03440693 0.022468066

layer.bias f4 [6]
00000000: 8cb2 88bc 76aa bdbd 8e9d af3d 409a 883c
00000010: d3ea 1bbc bf80 35be
-0.0166867 -0.092610285 0.08574973 0.016675115 -0.009516436 -0.17724894
