testdata/dnn/onnx/models/face_detection_yunet_2023mar_int8.onnx (onnx, 100416 bytes, 55 tensors)

464 f4 [4]
00000000: 0000 803f 0000 803f 0000 0040 0000 0040
1.0 1.0 2.0 2.0

465 f4 [4]
00000000: 0000 803f 0000 803f 0000 0040 0000 0040
1.0 1.0 2.0 2.0

420_quantized i1 [16, 3, 3, 3]
00000000: 1ff3 e729 e6d4 12ef 333d eec8 48de ac2b
00000010: e711 38ed cd40 ddb7 2dee 22eb eaf3 f8e9
00000020: fbec d5f2 f7f8 fb05 f705 f1da f414 1311
00000030: 2b1c 2316 fd11 0719 0f0f 2015 1016 0f05
00000040: 130b 0916 0c0d 0f09 dfe7 e1df e6de e3df
00000050: db00 0b14 0fe9 d121 0de9 effb 0000 d9ba
00000060: 0cfa d0f6 1721 ffef da14 19fb d9df f1cc
00000070: c5be e8fb e722 222e 160a fd3c 4e35 fb02
00000080: 0fef e9dc 081f 0424 5a4e dbd9 f6da b7d9
00000090: 4e7e 73e3 d9fa cea3 c72d 3e3b e9c3 ec03
000000a0: bbe4 ebf8 f407 0cfd 0b11 ff1a 221f 2f31
000000b0: 2331 3425 dade e4e3 e0db e3e1 db1d 040a
000000c0: 0fed 0521 1826 e3cd d2dc bbcf ede5 ee20
000000d0: 100b 0df3 0010 0e13 0412 11f9 1e0d 0e3c
000000e0: 15ce dfcf c5ed c9ce ffc4 1335 2404 401f
000000f0: f33a 0537 1902 b5c6 1b18 ea1d 0e14 2c81
31 -13 -25 41 -26 -44 18 -17
51 61 -18 -56 72 -34 -84 43
-25 17 56 -19 -51 64 -35 -73
45 -18 34 -21 -22 -13 -8 -23
-5 -20 -43 -14 -9 -8 -5 5
-9 5 -15 -38 -12 20 19 17
43 28 35 22 -3 17 7 25
15 15 32 21 16 22 15 5
19 11 9 22 12 13 15 9
-33 -25 -31 -33 -26 -34 -29 -33
-37 0 11 20 15 -23 -47 33
13 -23 -17 -5 0 0 -39 -70
12 -6 -48 -10 23 33 -1 -17
-38 20 25 -5 -39 -33 -15 -52
-59 -66 -24 -5 -25 34 34 46
22 10 -3 60 78 53 -5 2
15 -17 -23 -36 8 31 4 36
90 78 -37 -39 -10 -38 -73 -39
78 126 115 -29 -39 -6 -50 -93
-57 45 62 59 -23 -61 -20 3
-69 -28 -21 -8 -12 7 12 -3
11 17 -1 26 34 31 47 49
35 49 52 37 -38 -34 -28 -29
-32 -37 -29 -31 -37 29 4 10
15 -19 5 33 24 38 -29 -51
-46 -36 -69 -49 -19 -27 -18 32
16 11 13 -13 0 16 14 19
4 18 17 -7 30 13 14 60
21 -50 -33 -49 -59 -19 -55 -50
-1 -60 19 53 36 4 64 31
-13 58 5 55 25 2 -75 -58
27 24 -22 29 14 20 44 -127

backbone.model0.conv2.conv1.weight_quantized i1 [16, 16, 1, 1]
00000000: fff8 f1e2 08f3 fe01 0ef4 fef9 0ed7 78b9
00000010: e202 02f0 fedc 0e0a ff2a 3327 270e 5feb
00000020: 060b 4723 adf5 4c63 4705 0810 0a10 0301
00000030: 09bd d0f7 ba06 a93a 530f 22f2 f00c f6ff
00000040: f315 f7d8 cffa 10e3 00ed 1401 08cb 10c4
00000050: 1efd 0e0a 0e40 f30a fed9 0c11 b901 0e0f
00000060: 1ffb 1003 f8c9 f2fb eff3 ebf3 3bfb 9323
00000070: 3710 0a1a f7fd 041a dcfc 1619 1b03 f628
00000080: 1316 19ea f021 f1e0 f0f4 1236 cb18 06f9
00000090: 1108 ee11 f1c3 12f9 f7f4 f4ed 58ea fefc
000000a0: 041f f20e f00a 0c17 e629 440b f557 e359
000000b0: 00ff f9db f900 fa00 fdf6 09f7 fedb 6dc9
000000c0: f481 48d6 e807 ebd5 b903 bee9 f7f1 f3f8
000000d0: 2cf6 fc1d 0c11 fefc 09d4 05fd ccf3 fa20
000000e0: d500 f6ed f4e8 0b15 dc2d 081d 1621 09eb
000000f0: 2a0d 0829 f5e9 0506 07e6 11d1 39f8 f213
-1 -8 -15 -30 8 -13 -2 1
14 -12 -2 -7 14 -41 120 -71
-30 2 2 -16 -2 -36 14 10
-1 42 51 39 39 14 95 -21
6 11 71 35 -83 -11 76 99
71 5 8 16 10 16 3 1
9 -67 -48 -9 -70 6 -87 58
83 15 34 -14 -16 12 -10 -1
-13 21 -9 -40 -49 -6 16 -29
0 -19 20 1 8 -53 16 -60
30 -3 14 10 14 64 -13 10
-2 -39 12 17 -71 1 14 15
31 -5 16 3 -8 -55 -14 -5
-17 -13 -21 -13 59 -5 -109 35
55 16 10 26 -9 -3 4 26
-36 -4 22 25 27 3 -10 40
19 22 25 -22 -16 33 -15 -32
-16 -12 18 54 -53 24 6 -7
17 8 -18 17 -15 -61 18 -7
-9 -12 -12 -19 88 -22 -2 -4
4 31 -14 14 -16 10 12 23
-26 41 68 11 -11 87 -29 89
0 -1 -7 -37 -7 0 -6 0
-3 -10 9 -9 -2 -37 109 -55
-12 -127 72 -42 -24 7 -21 -43
-71 3 -66 -23 -9 -15 -13 -8
44 -10 -4 29 12 17 -2 -4
9 -44 5 -3 -52 -13 -6 32
-43 0 -10 -19 -12 -24 11 21
-36 45 8 29 22 33 9 -21
42 13 8 41 -11 -23 5 6
7 -26 17 -47 57 -8 -14 19

423_quantized i1 [16, 1, 3, 3]
00000000: d8bd dbf1 13f5 2333 2cfe ee01 fde7 fcf8
00000010: f900 fa1c 03f9 1e1e 11ed 0001 ece2 f4f3
00000020: 0606 06ff d4cc d84d 7c65 debc c207 afd7
00000030: 3c59 c40d 33ff 07ee 04f1 ebf3 fcfa fd1c
00000040: 19ef 0e54 8114 2bb9 0b13 0cc6 acb4 2c3c
00000050: 2c3b 4805 18ae d7e4 e9f3 f0fe 19ed 3e05
00000060: 0307 0a18 3c25 de0c 10df c8df f90a fb04
00000070: 1f10 f90b fd04 0a07 b96a 02c4 f229 1011
00000080: f60a 5ad1 e74a a7f2 e00a a225 3be3 56f5
-40 -67 -37 -15 19 -11 35 51
44 -2 -18 1 -3 -25 -4 -8
-7 0 -6 28 3 -7 30 30
17 -19 0 1 -20 -30 -12 -13
6 6 6 -1 -44 -52 -40 77
124 101 -34 -68 -62 7 -81 -41
60 89 -60 13 51 -1 7 -18
4 -15 -21 -13 -4 -6 -3 28
25 -17 14 84 -127 20 43 -71
11 19 12 -58 -84 -76 44 60
44 59 72 5 24 -82 -41 -28
-23 -13 -16 -2 25 -19 62 5
3 7 10 24 60 37 -34 12
16 -33 -56 -33 -7 10 -5 4
31 16 -7 11 -3 4 10 7
-71 106 2 -60 -14 41 16 17
-10 10 90 -47 -25 74 -89 -14
-32 10 -94 37 59 -29 86 -11

backbone.model1.conv1.conv1.weight_quantized i1 [16, 16, 1, 1]
00000000: 1140 f804 fefd d70b 0201 22fd 02f7 04fe
00000010: 1ff0 0501 04ee fac9 0b21 020a 02d0 bef8
00000020: 0f10 f7fb f100 1bf7 e704 01e1 09fe edf6
00000030: e829 f0fc f5f5 d6f8 f9fb f6dc e7f7 fffb
00000040: 0410 1625 0201 0000 0204 fcff 7f01 ff03
00000050: eb10 0205 c1fd 1313 bcd4 1801 0812 12f8
00000060: 0625 0602 05fe ce02 0404 2909 0002 0104
00000070: f312 0104 e8c7 1913 ea1c 1aee 03d6 0331
00000080: 0b0f ca4c 00fb 0a00 fe00 05fa fefe 02f9
00000090: c3e1 fbfc ec08 c9fc f3f7 f820 f2fd fdfd
000000a0: 032e 00fe ffff c9fd 0000 13f1 f402 fdf8
000000b0: 0af3 0103 0935 fada 09d8 fd09 fe24 f4bd
000000c0: faf4 0f06 0c01 fcfd f8de e9fe 0c01 000e
000000d0: fb1f 0c0a 0113 1508 0a07 39fd 0b0d 0704
000000e0: 4212 01fe 05fe 1ef5 fb03 03c9 0100 fe08
000000f0: 02d9 5827 0802 0afc 04fd 1c02 11fe fa05
17 64 -8 4 -2 -3 -41 11
2 1 34 -3 2 -9 4 -2
31 -16 5 1 4 -18 -6 -55
11 33 2 10 2 -48 -66 -8
15 16 -9 -5 -15 0 27 -9
-25 4 1 -31 9 -2 -19 -10
-24 41 -16 -4 -11 -11 -42 -8
-7 -5 -10 -36 -25 -9 -1 -5
4 16 22 37 2 1 0 0
2 4 -4 -1 127 1 -1 3
-21 16 2 5 -63 -3 19 19
-68 -44 24 1 8 18 18 -8
6 37 6 2 5 -2 -50 2
4 4 41 9 0 2 1 4
-13 18 1 4 -24 -57 25 19
-22 28 26 -18 3 -42 3 49
11 15 -54 76 0 -5 10 0
-2 0 5 -6 -2 -2 2 -7
-61 -31 -5 -4 -20 8 -55 -4
-13 -9 -8 32 -14 -3 -3 -3
3 46 0 -2 -1 -1 -55 -3
0 0 19 -15 -12 2 -3 -8
10 -13 1 3 9 53 -6 -38
9 -40 -3 9 -2 36 -12 -67
-6 -12 15 6 12 1 -4 -3
-8 -34 -23 -2 12 1 0 14
-5 31 12 10 1 19 21 8
10 7 57 -3 11 13 7 4
66 18 1 -2 5 -2 30 -11
-5 3 3 -55 1 0 -2 8
2 -39 88 39 8 2 10 -4
4 -3 28 2 17 -2 -6 5

426_quantized i1 [16, 1, 3, 3]
00000000: ded5 e1fb 21f5 0f42 0c06 2f05 fe0e fbff
00000010: fe00 1055 0e00 9e05 f9fc 02f3 2500 e544
00000020: 0cfb dbf6 fc08 fa0e ba09 fc0c fa03 d802
00000030: 01e4 02fd fe02 2907 d339 f5ca 14ff f4ff
00000040: 1902 043e 06fe 0002 06f4 09fb 3502 fc16
00000050: f8fa 00fd f07f f505 f201 0710 f119 5bb9
00000060: f8f1 eb02 2711 fd26 0a03 feff 095b fc0f
00000070: 96e5 0610 fb01 02ff 07af 03fc 11fe fd0a
00000080: fcfc 4801 04f4 0306 ff05 fa41 fdf7 08f9
-34 -43 -31 -5 33 -11 15 66
12 6 47 5 -2 14 -5 -1
-2 0 16 85 14 0 -98 5
-7 -4 2 -13 37 0 -27 68
12 -5 -37 -10 -4 8 -6 14
-70 9 -4 12 -6 3 -40 2
1 -28 2 -3 -2 2 41 7
-45 57 -11 -54 20 -1 -12 -1
25 2 4 62 6 -2 0 2
6 -12 9 -5 53 2 -4 22
-8 -6 0 -3 -16 127 -11 5
-14 1 7 16 -15 25 91 -71
-8 -15 -21 2 39 17 -3 38
10 3 -2 -1 9 91 -4 15
-106 -27 6 16 -5 1 2 -1
7 -81 3 -4 17 -2 -3 10
-4 -4 72 1 4 -12 3 6
-1 5 -6 65 -3 -9 8 -7

backbone.model1.conv2.conv1.weight_quantized i1 [32, 16, 1, 1]
00000000: eccf f2f8 2eeb f401 02fd 1aef fa05 f7e1
00000010: f63f 0d01 f931 1426 0b07 ef15 f90e 0406
00000020: 132d 1f16 f6f1 edf3 032b 0216 23ed f909
00000030: 0905 0bfa a405 f601 fbfe 0904 ff3a 0cff
00000040: 083d fc1d 06fa 07f5 00d4 0612 fb01 03e3
00000050: f0c8 f3e5 0808 22b8 fc00 ed2b d6d5 e5ff
00000060: 1b21 42e1 ee13 0407 002e f613 2ee8 1e01
00000070: f23d f202 0102 fd1c 2118 040b 013b f21c
00000080: 40f2 0806 fbe5 44fe ff07 2912 f9f3 cb03
00000090: 08ec 02e5 f9d1 01c7 0120 fa52 dff3 fef9
000000a0: 2df9 0900 fffe c704 001f fc0f 2ae8 e707
000000b0: 12f1 fecb ece6 f828 05f5 03ec 09cf 0269
000000c0: ef06 f332 ee07 2821 04d9 3801 1bfd 1f0a
000000d0: a005 1f17 17dc f2f9 f3e0 1500 e11f 0206
000000e0: eeb4 cc16 e8d2 152f 08e5 f0d3 f5e8 fdfe
000000f0: 091e ff48 00fc 8cf5 faf6 c21b 0bf8 f703
-20 -49 -14 -8 46 -21 -12 1
2 -3 26 -17 -6 5 -9 -31
-10 63 13 1 -7 49 20 38
11 7 -17 21 -7 14 4 6
19 45 31 22 -10 -15 -19 -13
3 43 2 22 35 -19 -7 9
9 5 11 -6 -92 5 -10 1
-5 -2 9 4 -1 58 12 -1
8 61 -4 29 6 -6 7 -11
0 -44 6 18 -5 1 3 -29
-16 -56 -13 -27 8 8 34 -72
-4 0 -19 43 -42 -43 -27 -1
27 33 66 -31 -18 19 4 7
0 46 -10 19 46 -24 30 1
-14 61 -14 2 1 2 -3 28
33 24 4 11 1 59 -14 28
64 -14 8 6 -5 -27 68 -2
-1 7 41 18 -7 -13 -53 3
8 -20 2 -27 -7 -47 1 -57
1 32 -6 82 -33 -13 -2 -7
45 -7 9 0 -1 -2 -57 4
0 31 -4 15 42 -24 -25 7
18 -15 -2 -53 -20 -26 -8 40
5 -11 3 -20 9 -49 2 105
-17 6 -13 50 -18 7 40 33
4 -39 56 1 27 -3 31 10
-96 5 31 23 23 -36 -14 -7
-13 -32 21 0 -31 31 2 6
-18 -76 -52 22 -24 -46 21 47
8 -27 -16 -45 -11 -24 -3 -2
9 30 -1 72 0 -4 -116 -11
-6 -10 -62 27 11 -8 -9 3

429_quantized i1 [32, 1, 3, 3]
00000000: eacf e1f7 04ea 2642 24f1 0010 f6ec 0c38
00000010: 7dd4 0804 1101 4b35 dcc1 e041 edd0 3c13
00000020: b025 16d0 eee1 fdf7 b6e1 1a7f 1c01 100a
00000030: 0626 000b 11fa ed1a fde6 b3f6 fa04 021a
00000040: 0bf8 16d8 e102 f3e9 d90a f2d5 fb08 07fa
00000050: faf3 f610 fdda 0216 efdf fb15 e3f1 b00b
00000060: fcf7 1902 fa07 f9c0 0a03 f905 09dc e5d5
00000070: 0009 e215 04f4 0afb f4fc f60e 6aff fcea
00000080: f20d dc16 00df fe07 fe06 224c f30b 0604
00000090: 0ff8 f403 d7d6 0809 07d2 9cf7 1e61 fe06
000000a0: 1d07 c2c9 d804 26ee 2149 17f7 10ef 00af
000000b0: 0209 0e03 f611 f410 56f6 f2e9 052e c5ec
000000c0: 7ce8 c423 df02 ee17 fcdc f11c edbe f8d8
000000d0: dde3 eb06 fb1f 401b 012c f9f7 9802 03ed
000000e0: 0318 f9ac 0ab9 05e9 f639 d5f2 ed06 e003
000000f0: e8ff e11b d311 094b f402 120e 07f2 1297
-22 -49 -31 -9 4 -22 38 66
36 -15 0 16 -10 -20 12 56
125 -44 8 4 17 1 75 53
-36 -63 -32 65 -19 -48 60 19
-80 37 22 -48 -18 -31 -3 -9
-74 -31 26 127 28 1 16 10
6 38 0 11 17 -6 -19 26
-3 -26 -77 -10 -6 4 2 26
11 -8 22 -40 -31 2 -13 -23
-39 10 -14 -43 -5 8 7 -6
-6 -13 -10 16 -3 -38 2 22
-17 -33 -5 21 -29 -15 -80 11
-4 -9 25 2 -6 7 -7 -64
10 3 -7 5 9 -36 -27 -43
0 9 -30 21 4 -12 10 -5
-12 -4 -10 14 106 -1 -4 -22
-14 13 -36 22 0 -33 -2 7
-2 6 34 76 -13 11 6 4
15 -8 -12 3 -41 -42 8 9
7 -46 -100 -9 30 97 -2 6
29 7 -62 -55 -40 4 38 -18
33 73 23 -9 16 -17 0 -81
2 9 14 3 -10 17 -12 16
86 -10 -14 -23 5 46 -59 -20
124 -24 -60 35 -33 2 -18 23
-4 -36 -15 28 -19 -66 -8 -40
-35 -29 -21 6 -5 31 64 27
1 44 -7 -9 -104 2 3 -19
3 24 -7 -84 10 -71 5 -23
-10 57 -43 -14 -19 6 -32 3
-24 -1 -31 27 -45 17 9 75
-12 2 18 14 7 -14 18 -105

backbone.model2.conv1.conv1.weight_quantized i1 [32, 32, 1, 1]
00000000: 09ee 1c02 ec09 2e2d f515 f504 d745 1204
00000010: 0000 f947 eff1 d409 e0f6 fcf0 13fd 040f
00000020: d912 c314 de1d 021f 0216 1a0c 07f8 e2fd
00000030: 2290 c3f5 0d0d 07df 1316 ffe0 0ac0 251a
00000040: 0e08 00e8 1195 c612 edfb 191f 1c19 e70e
00000050: f3fa 15fb 1202 e905 190b 00ed 12f5 f10d
00000060: 08f5 0e04 efdf effe 05dc f8e0 f6f6 ed07
00000070: 09f6 f1f5 7f0c 0907 f7db 2016 f7fb 5c15
00000080: 1cf4 19f0 d5d9 f72f ddee f619 f414 f0cd
00000090: dfe3 fbe1 0fcb 1816 06f2 1b01 baf1 deff
000000a0: 0c15 0004 fdf9 d500 c1e7 f535 e1f8 fdb3
000000b0: 05f7 f8d4 11d0 f1fb 2206 11e2 edef f5f5
000000c0: 0f2a 2419 24d2 ce23 04d3 0fa4 1c3f e207
000000d0: fa27 12f6 f7fa 020b dee8 0100 0215 fb1a
000000e0: 07f8 ed02 0109 27ee 173b 1719 c304 fbc3
000000f0: 1b0a fa03 070d ec05 e01a 180e d4f4 05f8
9 -18 28 2 -20 9 46 45
-11 21 -11 4 -41 69 18 4
0 0 -7 71 -17 -15 -44 9
-32 -10 -4 -16 19 -3 4 15
-39 18 -61 20 -34 29 2 31
2 22 26 12 7 -8 -30 -3
34 -112 -61 -11 13 13 7 -33
19 22 -1 -32 10 -64 37 26
14 8 0 -24 17 -107 -58 18
-19 -5 25 31 28 25 -25 14
-13 -6 21 -5 18 2 -23 5
25 11 0 -19 18 -11 -15 13
8 -11 14 4 -17 -33 -17 -2
5 -36 -8 -32 -10 -10 -19 7
9 -10 -15 -11 127 12 9 7
-9 -37 32 22 -9 -5 92 21
28 -12 25 -16 -43 -39 -9 47
-35 -18 -10 25 -12 20 -16 -51
-33 -29 -5 -31 15 -53 24 22
6 -14 27 1 -70 -15 -34 -1
12 21 0 4 -3 -7 -43 0
-63 -25 -11 53 -31 -8 -3 -77
5 -9 -8 -44 17 -48 -15 -5
34 6 17 -30 -19 -17 -11 -11
15 42 36 25 36 -46 -50 35
4 -45 15 -92 28 63 -30 7
-6 39 18 -10 -9 -6 2 11
-34 -24 1 0 2 21 -5 26
7 -8 -19 2 1 9 39 -18
23 59 23 25 -61 4 -5 -61
27 10 -6 3 7 13 -20 5
-32 26 24 14 -44 -12 5 -8

432_quantized i1 [32, 1, 3, 3]
00000000: 232d 24f3 bdf0 eeef e105 1d1a fa09 1e04
00000010: f40e e90b f7fb 5020 ed0a 07fe fcfa 0fd9
00000020: d6fa fded fb7f e200 19ef 0df3 0612 3623
00000030: f60c 36f1 efe2 fc1c fcf5 c2f2 0fd7 0ff8
00000040: e6f7 daf6 6001 4503 041c 1211 161d e3c9
00000050: d90f 2825 d22d 0d01 e2f6 f529 fee9 2924
00000060: c6f2 1f03 3225 f80a 0003 0aff 0cf4 03ec
00000070: 21ef 1247 235e fde4 1df3 eff0 f4ea 0317
00000080: fd0c 2c05 0013 0317 19e4 3c27 b508 f1ea
00000090: abb7 05fc 300b f83a 130b 081b b4b1 270d
000000a0: f739 edfb 0901 9741 02ea 100d 06f9 125d
000000b0: 8531 e1d8 0dc0 e9f0 03ef fd06 e8e9 e901
000000c0: d011 34d7 0d2e 19db cf2c 23ca 3417 e9f9
000000d0: f2d2 f301 d8fe 0202 fe0b 0beb dbed ecc8
000000e0: f544 2fe9 18f5 ebe0 e3f9 06f6 b706 fae0
000000f0: f002 fbd5 cddf ed4c e50a 40ff ebf1 00fa
35 45 36 -13 -67 -16 -18 -17
-31 5 29 26 -6 9 30 4
-12 14 -23 11 -9 -5 80 32
-19 10 7 -2 -4 -6 15 -39
-42 -6 -3 -19 -5 127 -30 0
25 -17 13 -13 6 18 54 35
-10 12 54 -15 -17 -30 -4 28
-4 -11 -62 -14 15 -41 15 -8
-26 -9 -38 -10 96 1 69 3
4 28 18 17 22 29 -29 -55
-39 15 40 37 -46 45 13 1
-30 -10 -11 41 -2 -23 41 36
-58 -14 31 3 50 37 -8 10
0 3 10 -1 12 -12 3 -20
33 -17 18 71 35 94 -3 -28
29 -13 -17 -16 -12 -22 3 23
-3 12 44 5 0 19 3 23
25 -28 60 39 -75 8 -15 -22
-85 -73 5 -4 48 11 -8 58
19 11 8 27 -76 -79 39 13
-9 57 -19 -5 9 1 -105 65
2 -22 16 13 6 -7 18 93
-123 49 -31 -40 13 -64 -23 -16
3 -17 -3 6 -24 -23 -23 1
-48 17 52 -41 13 46 25 -37
-49 44 35 -54 52 23 -23 -7
-14 -46 -13 1 -40 -2 2 2
-2 11 11 -21 -37 -19 -20 -56
-11 68 47 -23 24 -11 -21 -32
-29 -7 6 -10 -73 6 -6 -32
-16 2 -5 -43 -51 -33 -19 76
-27 10 64 -1 -21 -15 0 -6

backbone.model2.conv2.conv1.weight_quantized i1 [64, 32, 1, 1]
00000000: 21e0 1a0b f2e0 19e3 1000 d922 eb15 e8f3
00000010: ebfb 06d0 efef d917 0ee3 0908 eac2 f6e4
00000020: cfdd eb08 1b2d 0ff4 0ed2 1ec7 5030 07fc
00000030: fa16 f2ef 2f1a f2d5 0120 18d4 a405 1c00
00000040: 1211 0604 0cfc f10f f8ff 1723 fe1a e8ec
00000050: 17dc 0dfc aeee e913 1011 ef15 3e19 ea20
00000060: 1ae1 fcd5 5707 f1ed e1de 0605 090e f9c2
00000070: f3ff f2f2 fca7 e710 04fe 1209 15ac e0f9
00000080: d121 b9e4 e73c 009a f72a 2019 11fb 15d6
00000090: cff2 eeb5 fece 0c40 040b d711 11dd 36f7
000000a0: f4f6 e5fd 0509 28e6 0808 1902 0a44 e4dc
000000b0: de07 11cb ccf8 1822 1da7 4e11 fa1b 230c
000000c0: 22fb f2f8 dbfc 1fcb 29f9 fcdc ffcc e80a
000000d0: f50a 331d 37d4 12cc f209 f208 a6ed 0809
000000e0: eae2 1ecc f2cc 1506 f1f9 0059 15d8 0fed
000000f0: 260c f900 d419 e22f efe0 d12c 05ee dafc
33 -32 26 11 -14 -32 25 -29
16 0 -39 34 -21 21 -24 -13
-21 -5 6 -48 -17 -17 -39 23
14 -29 9 8 -22 -62 -10 -28
-49 -35 -21 8 27 45 15 -12
14 -46 30 -57 80 48 7 -4
-6 22 -14 -17 47 26 -14 -43
1 32 24 -44 -92 5 28 0
18 17 6 4 12 -4 -15 15
-8 -1 23 35 -2 26 -24 -20
23 -36 13 -4 -82 -18 -23 19
16 17 -17 21 62 25 -22 32
26 -31 -4 -43 87 7 -15 -19
-31 -34 6 5 9 14 -7 -62
-13 -1 -14 -14 -4 -89 -25 16
4 -2 18 9 21 -84 -32 -7
-47 33 -71 -28 -25 60 0 -102
-9 42 32 25 17 -5 21 -42
-49 -14 -18 -75 -2 -50 12 64
4 11 -41 17 17 -35 54 -9
-12 -10 -27 -3 5 9 40 -26
8 8 25 2 10 68 -28 -36
-34 7 17 -53 -52 -8 24 34
29 -89 78 17 -6 27 35 12
34 -5 -14 -8 -37 -4 31 -53
41 -7 -4 -36 -1 -52 -24 10
-11 10 51 29 55 -44 18 -52
-14 9 -14 8 -90 -19 8 9
-22 -30 30 -52 -14 -52 21 6
-15 -7 0 89 21 -40 15 -19
38 12 -7 0 -44 25 -30 47
-17 -32 -47 44 5 -18 -38 -4

435_quantized i1 [64, 1, 3, 3]
00000000: da07 29e0 132b dd10 26e8 f8fa f2d6 03f5
00000010: edf7 2a29 2209 eb00 cde2 ec2f 23ea 0943
00000020: 13cb 001f 151c 1508 1819 0204 19fe d8f3
00000030: e0e9 0cda 0a0a 07f2 edf4 e7f8 e7e2 ed17
00000040: e4f2 5705 cf0b 11e6 faed f009 eee6 11dc
00000050: c72d 0dce 17d9 deef eafe f3ec f0f3 e3f0
00000060: eae8 f9f2 f8f2 fcf8 fee1 d4e7 06f8 0e09
00000070: 1b20 0f34 22fd 32c9 fcf0 43fd 0465 08eb
00000080: 0c17 232d 2032 16e3 162f c6f6 17d9 ce18
00000090: 1fd4 0cd6 c313 d22e 27fe 0706 083b 21ea
000000a0: 0c12 151b 071a 21f5 3106 f6e9 e2e4 e2d3
000000b0: d0fb edde ed2e dcda 4ae5 0a5d ee2b 0dd7
000000c0: 1a05 d224 fed3 fa2d ddd8 a177 2e2f b7ef
000000d0: f2f5 fde6 ebed e1eb 24fe d204 f6c0 f7eb
000000e0: eb19 f8f7 520f 0315 0403 cac0 b801 0702
000000f0: 030f ff02 3bd5 e430 c511 2bf6 e5e3 e9f1
-38 7 41 -32 19 43 -35 16
38 -24 -8 -6 -14 -42 3 -11
-19 -9 42 41 34 9 -21 0
-51 -30 -20 47 35 -22 9 67
19 -53 0 31 21 28 21 8
24 25 2 4 25 -2 -40 -13
-32 -23 12 -38 10 10 7 -14
-19 -12 -25 -8 -25 -30 -19 23
-28 -14 87 5 -49 11 17 -26
-6 -19 -16 9 -18 -26 17 -36
-57 45 13 -50 23 -39 -34 -17
-22 -2 -13 -20 -16 -13 -29 -16
-22 -24 -7 -14 -8 -14 -4 -8
-2 -31 -44 -25 6 -8 14 9
27 32 15 52 34 -3 50 -55
-4 -16 67 -3 4 101 8 -21
12 23 35 45 32 50 22 -29
22 47 -58 -10 23 -39 -50 24
31 -44 12 -42 -61 19 -46 46
39 -2 7 6 8 59 33 -22
12 18 21 27 7 26 33 -11
49 6 -10 -23 -30 -28 -30 -45
-48 -5 -19 -34 -19 46 -36 -38
74 -27 10 93 -18 43 13 -41
26 5 -46 36 -2 -45 -6 45
-35 -40 -95 119 46 47 -73 -17
-14 -11 -3 -26 -21 -19 -31 -21
36 -2 -46 4 -10 -64 -9 -21
-21 25 -8 -9 82 15 3 21
4 3 -54 -64 -72 1 7 2
3 15 -1 2 59 -43 -28 48
-59 17 43 -10 -27 -29 -23 -15

backbone.model3.conv1.conv1.weight_quantized i1 [64, 64, 1, 1]
00000000: 1809 1714 0aec d9df e00a 0af2 fe02 05e4
00000010: 000c 2216 e703 01e3 f9f8 35fe 5f11 1c1b
00000020: 2231 fa0d 1909 f51d f303 1d09 e9ff 03a8
00000030: 1702 31f0 02e6 04f6 0118 edfc cabe d913
00000040: e7fd 0e17 43be ca0a ebe5 f51b f101 1234
00000050: 0b03 25fa f706 07f5 24e5 1cd3 0205 100a
00000060: f4fd 27ee e91a fe0c 051e d513 f8dc e4f4
00000070: f4c6 2b07 ffdc 0c0d e306 f9e4 f139 0f3e
00000080: f409 fef8 e6fd 26f8 dcf4 eeb0 e409 9cf9
00000090: fede 33d4 060b 0d3b e8ce 0c10 f6f0 ed26
000000a0: db21 1805 e21b dcd9 f802 fa0c 13be 01eb
000000b0: de14 f3ea 12f2 f8d7 1fdd d435 f1f8 d5c1
000000c0: 0011 051d 12e1 d8fa fec8 2cea 09ec 2714
000000d0: 184e 1a03 06e3 f005 d32c 1efe 22ef 12f9
000000e0: 69ea 15ef 3a07 100a 0908 1e17 ddf1 0327
000000f0: 04fa f1e5 df10 2f25 20e7 e50d f00e 1ef6
24 9 23 20 10 -20 -39 -33
-32 10 10 -14 -2 2 5 -28
0 12 34 22 -25 3 1 -29
-7 -8 53 -2 95 17 28 27
34 49 -6 13 25 9 -11 29
-13 3 29 9 -23 -1 3 -88
23 2 49 -16 2 -26 4 -10
1 24 -19 -4 -54 -66 -39 19
-25 -3 14 23 67 -66 -54 10
-21 -27 -11 27 -15 1 18 52
11 3 37 -6 -9 6 7 -11
36 -27 28 -45 2 5 16 10
-12 -3 39 -18 -23 26 -2 12
5 30 -43 19 -8 -36 -28 -12
-12 -58 43 7 -1 -36 12 13
-29 6 -7 -28 -15 57 15 62
-12 9 -2 -8 -26 -3 38 -8
-36 -12 -18 -80 -28 9 -100 -7
-2 -34 51 -44 6 11 13 59
-24 -50 12 16 -10 -16 -19 38
-37 33 24 5 -30 27 -36 -39
-8 2 -6 12 19 -66 1 -21
-34 20 -13 -22 18 -14 -8 -41
31 -35 -44 53 -15 -8 -43 -63
0 17 5 29 18 -31 -40 -6
-2 -56 44 -22 9 -20 39 20
24 78 26 3 6 -29 -16 5
-45 44 30 -2 34 -17 18 -7
105 -22 21 -17 58 7 16 10
9 8 30 23 -35 -15 3 39
4 -6 -15 -27 -33 16 47 37
32 -25 -27 13 -16 14 30 -10

438_quantized i1 [64, 1, 3, 3]
00000000: f8f5 f8f7 f8fe 05cf f2fc 2813 0d04 f015
00000010: f901 04fa ffe9 c916 2b2d 0bed d3ee ef42
00000020: 02e3 f602 1429 fef7 c5fd eafa f91f 2a10
00000030: fd01 efe7 dae5 ffee 02f0 f5f3 f9ed f6f8
00000040: 1c1e 1111 0b18 0903 0505 f30f 5111 dad4
00000050: f711 080a 0826 0e05 1501 e3e0 fa09 da00
00000060: 252e 190d f602 0708 0728 1103 f930 1b18
00000070: 01db 1000 fc08 ef08 f6ee f2fd e4f8 f90a
00000080: 01fd ebf5 4103 2c01 0503 125c f2fb eafc
00000090: f1b5 fdfb 3821 f026 3513 0fe8 1e0b e414
000000a0: 00d3 1605 f12e bef4 1e1c 0011 02d8 2423
000000b0: b5f4 27f4 0738 0e23 08eb 09dc e71c 05f6
000000c0: 1dee eb20 fbf4 16ef e125 0ee0 1d0d edfb
000000d0: fdeb 07fa edf3 e108 f1ef 01f3 e0ec fbf6
000000e0: f5d7 1713 d1fb 07fa 1201 0609 010e 0b06
000000f0: 1215 0d0b 020c 0715 0324 1d1a f0e7 ee0d
-8 -11 -8 -9 -8 -2 5 -49
-14 -4 40 19 13 4 -16 21
-7 1 4 -6 -1 -23 -55 22
43 45 11 -19 -45 -18 -17 66
2 -29 -10 2 20 41 -2 -9
-59 -3 -22 -6 -7 31 42 16
-3 1 -17 -25 -38 -27 -1 -18
2 -16 -11 -13 -7 -19 -10 -8
28 30 17 17 11 24 9 3
5 5 -13 15 81 17 -38 -44
-9 17 8 10 8 38 14 5
21 1 -29 -32 -6 9 -38 0
37 46 25 13 -10 2 7 8
7 40 17 3 -7 48 27 24
1 -37 16 0 -4 8 -17 8
-10 -18 -14 -3 -28 -8 -7 10
1 -3 -21 -11 65 3 44 1
5 3 18 92 -14 -5 -22 -4
-15 -75 -3 -5 56 33 -16 38
53 19 15 -24 30 11 -28 20
0 -45 22 5 -15 46 -66 -12
30 28 0 17 2 -40 36 35
-75 -12 39 -12 7 56 14 35
8 -21 9 -36 -25 28 5 -10
29 -18 -21 32 -5 -12 22 -17
-31 37 14 -32 29 13 -19 -5
-3 -21 7 -6 -19 -13 -31 8
-15 -17 1 -13 -32 -20 -5 -10
-11 -41 23 19 -47 -5 7 -6
18 1 6 9 1 14 11 6
18 21 13 11 2 12 7 21
3 36 29 26 -16 -25 -18 13

backbone.model3.conv2.conv1.weight_quantized i1 [64, 64, 1, 1]
00000000: fe0a f3e4 dc16 1e0a 0f3c 02ed 181a 10d3
00000010: ffdf e3d3 03fb fe14 2412 031e df11 1519
00000020: 1d31 f6ee 18ee e702 e912 f7f9 030d ea2b
00000030: fd20 04f7 e302 271e fc25 1ff3 02e5 17fb
00000040: 1908 fe04 e9e7 0e2b f6ff 05f3 030d fc02
00000050: 000b eb03 07fd e5f6 efbd f908 d8f6 e70f
00000060: 3321 0901 05fb 0b10 0cf8 e621 1ff9 bfc3
00000070: fc00 ffe4 ea00 15fa fa1a dcfe 1bec 0c07
00000080: 0712 0b06 f806 e0fc fbf1 070b f3d9 0513
00000090: f526 0e00 05f9 f3e7 e81c e605 07f9 1300
000000a0: dfe9 f7d8 ec0a fbef ea09 f8da f805 0be5
000000b0: eefc e9ed f3e9 03db f7fa 0ce3 0fe5 f8f5
000000c0: 07e1 1005 d603 fcd3 f4ea 00f2 11f1 0503
000000d0: 00df f7ff fdfa e907 dada 0aee 0320 e0ed
000000e0: f7f3 0815 23f2 10c7 02dd effe 1403 cbe3
000000f0: f8ff 2aee 1a19 e8f6 11e3 ca11 1026 fde9
-2 10 -13 -28 -36 22 30 10
15 60 2 -19 24 26 16 -45
-1 -33 -29 -45 3 -5 -2 20
36 18 3 30 -33 17 21 25
29 49 -10 -18 24 -18 -25 2
-23 18 -9 -7 3 13 -22 43
-3 32 4 -9 -29 2 39 30
-4 37 31 -13 2 -27 23 -5
25 8 -2 4 -23 -25 14 43
-10 -1 5 -13 3 13 -4 2
0 11 -21 3 7 -3 -27 -10
-17 -67 -7 8 -40 -10 -25 15
51 33 9 1 5 -5 11 16
12 -8 -26 33 31 -7 -65 -61
-4 0 -1 -28 -22 0 21 -6
-6 26 -36 -2 27 -20 12 7
7 18 11 6 -8 6 -32 -4
-5 -15 7 11 -13 -39 5 19
-11 38 14 0 5 -7 -13 -25
-24 28 -26 5 7 -7 19 0
-33 -23 -9 -40 -20 10 -5 -17
-22 9 -8 -38 -8 5 11 -27
-18 -4 -23 -19 -13 -23 3 -37
-9 -6 12 -29 15 -27 -8 -11
7 -31 16 5 -42 3 -4 -45
-12 -22 0 -14 17 -15 5 3
0 -33 -9 -1 -3 -6 -23 7
-38 -38 10 -18 3 32 -32 -19
-9 -13 8 21 35 -14 16 -57
2 -35 -17 -2 20 3 -53 -29
-8 -1 42 -18 26 25 -24 -10
17 -29 -54 17 16 38 -3 -23

441_quantized i1 [64, 1, 3, 3]
00000000: f1f3 03f8 e6ec faf8 f31a 1b0f 110a 0203
00000010: 0204 002a 0b20 0bf7 2bf3 ed00 2a06 fd18
00000020: fe03 0c08 f4fd 010f 1b12 111f 2217 0a0e
00000030: 0f14 0404 0211 e5e3 ebfe ffe8 ff07 f32a
00000040: 3cfb 3a1d 00f5 e601 0b03 faf9 e6cc fbdf
00000050: e520 27ea 362c dff1 dded f0ed f2f5 effa
00000060: f801 fc03 0a07 04e8 fa0c 99e2 1027 1f08
00000070: 070d fe03 02fb 0a03 0f05 a800 10d0 1ef0
00000080: e61d 0eea 0e16 eb02 0905 060f 0911 0a03
00000090: f2f6 f7e5 ebf5 dae2 f7e8 eae3 0531 150b
000000a0: 4b1c 0513 05fe 9224 fbd3 14f0 eaf6 fdf3
000000b0: fef3 f1ef 0208 0011 071b 0c81 ebe5 ebe6
000000c0: 03f9 021c 1a2c 000f 0f11 1507 160d 050c
000000d0: 1207 0815 0607 0808 ebf5 1ef1 f713 f21c
000000e0: 2200 eff2 eaf3 01e3 f9f1 2901 da11 0bf0
000000f0: 151d e80f f404 0f09 0d20 1611 f616 00ec
-15 -13 3 -8 -26 -20 -6 -8
-13 26 27 15 17 10 2 3
2 4 0 42 11 32 11 -9
43 -13 -19 0 42 6 -3 24
-2 3 12 8 -12 -3 1 15
27 18 17 31 34 23 10 14
15 20 4 4 2 17 -27 -29
-21 -2 -1 -24 -1 7 -13 42
60 -5 58 29 0 -11 -26 1
11 3 -6 -7 -26 -52 -5 -33
-27 32 39 -22 54 44 -33 -15
-35 -19 -16 -19 -14 -11 -17 -6
-8 1 -4 3 10 7 4 -24
-6 12 -103 -30 16 39 31 8
7 13 -2 3 2 -5 10 3
15 5 -88 0 16 -48 30 -16
-26 29 14 -22 14 22 -21 2
9 5 6 15 9 17 10 3
-14 -10 -9 -27 -21 -11 -38 -30
-9 -24 -22 -29 5 49 21 11
75 28 5 19 5 -2 -110 36
-5 -45 20 -16 -22 -10 -3 -13
-2 -13 -15 -17 2 8 0 17
7 27 12 -127 -21 -27 -21 -26
3 -7 2 28 26 44 0 15
15 17 21 7 22 13 5 12
18 7 8 21 6 7 8 8
-21 -11 30 -15 -9 19 -14 28
34 0 -17 -14 -22 -13 1 -29
-7 -15 41 1 -38 17 11 -16
21 29 -24 15 -12 4 15 9
13 32 22 17 -10 22 0 -20

backbone.model4.conv1.conv1.weight_quantized i1 [64, 64, 1, 1]
00000000: 0e0e ee34 03a7 1afa 01f0 ea06 09f9 0319
00000010: e900 06e2 0506 f002 f5e9 05f5 f0f2 bbe7
00000020: f60d e9fd ef1d 0c17 04db fee0 0e35 fa2c
00000030: f5df e117 030d f305 eafb eefc fdae 1df6
00000040: 1905 05c7 df29 ea06 0dd0 fcec 03f3 fff9
00000050: d200 fb1f ffec 02f3 07fc 41f2 fb16 dc1c
00000060: 08d0 f50e d607 fc1d ee05 f927 f5ea 1134
00000070: f64d 1702 0ef3 efd8 f700 1424 f203 f002
00000080: e4fd 03d1 e8f6 0d21 06f4 1c09 d5fd 09f8
00000090: 1131 ef04 3006 fefc fff0 1cde ed02 ec1c
000000a0: 0700 0905 11d5 edf4 071c dbf3 ebf8 1d29
000000b0: 10fe bf1c 07ed fc0c 2bfd ffec 0ef8 ece2
000000c0: b516 e70d 05fc fde6 f7eb 27f4 f00c f106
000000d0: 1903 f7ef 012a dc19 e6c5 efd0 0ce3 09ee
000000e0: dc11 f30a 4b17 04ef 25f6 0600 0f21 f5c9
000000f0: f5f5 0400 0bdf d217 fafa 01ec fafc fc05
14 14 -18 52 3 -89 26 -6
1 -16 -22 6 9 -7 3 25
-23 0 6 -30 5 6 -16 2
-11 -23 5 -11 -16 -14 -69 -25
-10 13 -23 -3 -17 29 12 23
4 -37 -2 -32 14 53 -6 44
-11 -33 -31 23 3 13 -13 5
-22 -5 -18 -4 -3 -82 29 -10
25 5 5 -57 -33 41 -22 6
13 -48 -4 -20 3 -13 -1 -7
-46 0 -5 31 -1 -20 2 -13
7 -4 65 -14 -5 22 -36 28
8 -48 -11 14 -42 7 -4 29
-18 5 -7 39 -11 -22 17 52
-10 77 23 2 14 -13 -17 -40
-9 0 20 36 -14 3 -16 2
-28 -3 3 -47 -24 -10 13 33
6 -12 28 9 -43 -3 9 -8
17 49 -17 4 48 6 -2 -4
-1 -16 28 -34 -19 2 -20 28
7 0 9 5 17 -43 -19 -12
7 28 -37 -13 -21 -8 29 41
16 -2 -65 28 7 -19 -4 12
43 -3 -1 -20 14 -8 -20 -30
-75 22 -25 13 5 -4 -3 -26
-9 -21 39 -12 -16 12 -15 6
25 3 -9 -17 1 42 -36 25
-26 -59 -17 -48 12 -29 9 -18
-36 17 -13 10 75 23 4 -17
37 -10 6 0 15 33 -11 -55
-11 -11 4 0 11 -33 -46 23
-6 -6 1 -20 -6 -4 -4 5

444_quantized i1 [64, 1, 3, 3]
00000000: c7df c400 1cfb 2f2c 18e8 dfe3 24ce 0514
00000010: ee07 0109 fcff c1fd fb0c 01dd 221f e92c
00000020: 03c0 1f1b ff05 0413 df09 1349 0707 01fc
00000030: 3ad6 f815 1401 f305 080b 1123 0a14 18ec
00000040: e8ec 00ce 00f1 eaf4 ea17 10e5 0a18 e3dd
00000050: f904 d7e0 1ad7 ee01 4403 0920 f7f7 3003
00000060: 13f9 0afd 1805 0e0c 0a02 2124 3905 3403
00000070: d206 f6e4 f414 0dfa 0eee d80b ebd6 ae03
00000080: 17e3 1dfa 0e11 01fc fefa f953 fbfa f8fe
00000090: f0ca e6f9 190c 0216 fccb e1ec f2ef 1225
000000a0: 2423 f708 0c02 1e05 ffac d606 4afa 0a00
000000b0: fb4d f6f8 1c15 17fb 100e 052f fce3 d3cc
000000c0: f1fb f517 2f29 180d 07f9 1012 cbdd e6d4
000000d0: 2616 f8f4 40df ccd6 01a5 fa07 e5f9 060b
000000e0: 04ed 191e fc21 ef01 f3a1 1115 1cf0 0403
000000f0: e4d4 e4eb b5ff ef33 f8fc 0707 f5fc f318
-57 -33 -60 0 28 -5 47 44
24 -24 -33 -29 36 -50 5 20
-18 7 1 9 -4 -1 -63 -3
-5 12 1 -35 34 31 -23 44
3 -64 31 27 -1 5 4 19
-33 9 19 73 7 7 1 -4
58 -42 -8 21 20 1 -13 5
8 11 17 35 10 20 24 -20
-24 -20 0 -50 0 -15 -22 -12
-22 23 16 -27 10 24 -29 -35
-7 4 -41 -32 26 -41 -18 1
68 3 9 32 -9 -9 48 3
19 -7 10 -3 24 5 14 12
10 2 33 36 57 5 52 3
-46 6 -10 -28 -12 20 13 -6
14 -18 -40 11 -21 -42 -82 3
23 -29 29 -6 14 17 1 -4
-2 -6 -7 83 -5 -6 -8 -2
-16 -54 -26 -7 25 12 2 22
-4 -53 -31 -20 -14 -17 18 37
36 35 -9 8 12 2 30 5
-1 -84 -42 6 74 -6 10 0
-5 77 -10 -8 28 21 23 -5
16 14 5 47 -4 -29 -45 -52
-15 -5 -11 23 47 41 24 13
7 -7 16 18 -53 -35 -26 -44
38 22 -8 -12 64 -33 -52 -42
1 -91 -6 7 -27 -7 6 11
4 -19 25 30 -4 33 -17 1
-13 -95 17 21 28 -16 4 3
-28 -44 -28 -21 -75 -1 -17 51
-8 -4 7 7 -11 -4 -13 24

backbone.model4.conv2.conv1.weight_quantized i1 [64, 64, 1, 1]
00000000: 05fa 35fd 0f17 0436 271c ddf1 f0fd cd04
00000010: 2a10 0801 e1f6 021e 03fb d3e4 31fb 0003
00000020: d124 310a d3c8 082b f50d 1e1c ffff 281d
00000030: f6f4 f9f3 1fe1 07dd 1ae5 f431 e6dc d8e9
00000040: 040e fa01 0ddf f8f5 1505 0bf1 00df 2389
00000050: 2022 1ae0 19fc 2eee b802 12df f9f5 f8de
00000060: ece6 0c07 fde0 1bf2 2d0e f5fd bcfe 1907
00000070: bc05 ef0b e9fa fe12 dc1a da16 fa0f fdc9
00000080: eb1b ebfb f70b 39f3 1acf 221f c8e0 ca18
00000090: fcf3 0d05 1fcb fae3 fcea 2808 fa1a da02
000000a0: 071d 28f3 fbfd b2f7 0e0a 091b 052e 1428
000000b0: e2ee e0fb 191a 1a1b 0709 0713 1b05 fdf8
000000c0: 0007 0dfe 01e3 c2d9 fa06 050e e3f1 0af6
000000d0: 15e9 f30c 06fb 0404 ddfa dc0e 070b f3fb
000000e0: 00f0 fecd dce9 1107 f5df 0f08 1af4 fa05
000000f0: e913 e7e9 f3cd fa04 e9f5 fb13 0b1f e117
5 -6 53 -3 15 23 4 54
39 28 -35 -15 -16 -3 -51 4
42 16 8 1 -31 -10 2 30
3 -5 -45 -28 49 -5 0 3
-47 36 49 10 -45 -56 8 43
-11 13 30 28 -1 -1 40 29
-10 -12 -7 -13 31 -31 7 -35
26 -27 -12 49 -26 -36 -40 -23
4 14 -6 1 13 -33 -8 -11
21 5 11 -15 0 -33 35 -119
32 34 26 -32 25 -4 46 -18
-72 2 18 -33 -7 -11 -8 -34
-20 -26 12 7 -3 -32 27 -14
45 14 -11 -3 -68 -2 25 7
-68 5 -17 11 -23 -6 -2 18
-36 26 -38 22 -6 15 -3 -55
-21 27 -21 -5 -9 11 57 -13
26 -49 34 31 -56 -32 -54 24
-4 -13 13 5 31 -53 -6 -29
-4 -22 40 8 -6 26 -38 2
7 29 40 -13 -5 -3 -78 -9
14 10 9 27 5 46 20 40
-30 -18 -32 -5 25 26 26 27
7 9 7 19 27 5 -3 -8
0 7 13 -2 1 -29 -62 -39
-6 6 5 14 -29 -15 10 -10
21 -23 -13 12 6 -5 4 4
-35 -6 -36 14 7 11 -13 -5
0 -16 -2 -51 -36 -23 17 7
-11 -33 15 8 26 -12 -6 5
-23 19 -25 -23 -13 -51 -6 4
-23 -11 -5 19 11 31 -31 23

447_quantized i1 [64, 1, 3, 3]
00000000: fefc ffd6 0104 e2ca ebf9 f3fd f0cf eef5
00000010: f4fe ece7 ebeb edf2 e7f1 e61e 062b 11fc
00000020: 0717 f61b 05f6 d615 dee3 04f2 f823 f900
00000030: 19af f501 f00c 080d 06e5 950a 07f4 1afa
00000040: 0b1b 1111 1422 fe0c f1f3 02f4 f0f2 f9ee
00000050: f337 2418 2506 ff05 0000 1711 160d 241f
00000060: 0b08 1917 4bf2 e6f8 d0e9 dee5 0c0c 2700
00000070: e515 1bfd 351f 1324 1406 fd2e 2b0c f8e3
00000080: c5ff e2d5 0507 f643 fbf4 1a18 fd0a 180a
00000090: 0001 00fe 1a01 fdb1 0411 a3c7 1908 0e05
000000a0: fef4 0c08 080e 0b19 161a 1bf0 f9f5 010e
000000b0: 0234 34fa eafa ecfd f0ed f0e6 f5f4 e8ef
000000c0: f4de edf1 0aeb eeea e2fe fbde 0508 f311
000000d0: 0801 f214 fd25 1929 120d 1015 1115 2018
000000e0: 0d03 0311 fbf9 1e0d 2416 fa08 10da 1a42
000000f0: e332 15e6 d7f2 e7ef fcef eaf3 0905 fb0f
-2 -4 -1 -42 1 4 -30 -54
-21 -7 -13 -3 -16 -49 -18 -11
-12 -2 -20 -25 -21 -21 -19 -14
-25 -15 -26 30 6 43 17 -4
7 23 -10 27 5 -10 -42 21
-34 -29 4 -14 -8 35 -7 0
25 -81 -11 1 -16 12 8 13
6 -27 -107 10 7 -12 26 -6
11 27 17 17 20 34 -2 12
-15 -13 2 -12 -16 -14 -7 -18
-13 55 36 24 37 6 -1 5
0 0 23 17 22 13 36 31
11 8 25 23 75 -14 -26 -8
-48 -23 -34 -27 12 12 39 0
-27 21 27 -3 53 31 19 36
20 6 -3 46 43 12 -8 -29
-59 -1 -30 -43 5 7 -10 67
-5 -12 26 24 -3 10 24 10
0 1 0 -2 26 1 -3 -79
4 17 -93 -57 25 8 14 5
-2 -12 12 8 8 14 11 25
22 26 27 -16 -7 -11 1 14
2 52 52 -6 -22 -6 -20 -3
-16 -19 -16 -26 -11 -12 -24 -17
-12 -34 -19 -15 10 -21 -18 -22
-30 -2 -5 -34 5 8 -13 17
8 1 -14 20 -3 37 25 41
18 13 16 21 17 21 32 24
13 3 3 17 -5 -7 30 13
36 22 -6 8 16 -38 26 66
-29 50 21 -26 -41 -14 -25 -17
-4 -17 -22 -13 9 5 -5 15

backbone.model5.conv1.conv1.weight_quantized i1 [64, 64, 1, 1]
00000000: faeb 00f3 fbf1 03ee fadb f004 fcef 0610
00000010: 0201 fbfe f509 1017 e9f4 08fe 0204 0200
00000020: 0b09 00ae f80c f4f0 fc05 0af0 fcf2 0700
00000030: faf2 e40a 04e9 02f0 0015 f404 ecfb 1505
00000040: 0d17 09fe fd08 fe09 0211 0004 effc f801
00000050: 040d 1316 12ff 21ec e0fa 0d0e f6ff 050c
00000060: 0815 05f9 1404 0816 1f06 0dfa 03ff 0003
00000070: 0700 fbff 12fc fe00 fb03 1cff 15f7 df1c
00000080: 07fb fd20 f506 f714 0ef8 fbf8 000f 38fd
00000090: fe01 f500 eb12 c50b 0cf5 fb0c 01f7 0509
000000a0: 1c09 f1ea ef04 1502 f405 eced 04f4 0007
000000b0: e6f4 f709 f4f2 1109 0007 1cf2 04fc f801
000000c0: 25f8 e522 1f15 f706 2705 fc35 0ffa f5fa
000000d0: 02f7 0114 e215 fa06 15fa 07de 0506 0429
000000e0: fded 0216 021f fb0d ebfb faf0 1a01 0606
000000f0: f611 f014 150c f5fc 0b0d 0300 e3d2 02f0
-6 -21 0 -13 -5 -15 3 -18
-6 -37 -16 4 -4 -17 6 16
2 1 -5 -2 -11 9 16 23
-23 -12 8 -2 2 4 2 0
11 9 0 -82 -8 12 -12 -16
-4 5 10 -16 -4 -14 7 0
-6 -14 -28 10 4 -23 2 -16
0 21 -12 4 -20 -5 21 5
13 23 9 -2 -3 8 -2 9
2 17 0 4 -17 -4 -8 1
4 13 19 22 18 -1 33 -20
-32 -6 13 14 -10 -1 5 12
8 21 5 -7 20 4 8 22
31 6 13 -6 3 -1 0 3
7 0 -5 -1 18 -4 -2 0
-5 3 28 -1 21 -9 -33 28
7 -5 -3 32 -11 6 -9 20
14 -8 -5 -8 0 15 56 -3
-2 1 -11 0 -21 18 -59 11
12 -11 -5 12 1 -9 5 9
28 9 -15 -22 -17 4 21 2
-12 5 -20 -19 4 -12 0 7
-26 -12 -9 9 -12 -14 17 9
0 7 28 -14 4 -4 -8 1
37 -8 -27 34 31 21 -9 6
39 5 -4 53 15 -6 -11 -6
2 -9 1 20 -30 21 -6 6
21 -6 7 -34 5 6 4 41
-3 -19 2 22 2 31 -5 13
-21 -5 -6 -16 26 1 6 6
-10 17 -16 20 21 12 -11 -4
11 13 3 0 -29 -46 2 -16

450_quantized i1 [64, 1, 3, 3]
00000000: c907 1208 0c02 ce07 12c3 dd45 d805 1ee3
00000010: 0715 000e 3ae8 fc15 fdf6 1ce4 07e9 0714
00000020: fe14 370d e8fa 07f4 e901 3c0e 1903 0c02
00000030: 015b 14fe f9fe fc02 f610 29f8 0f28 04f8
00000040: 2349 e6f2 35e4 ecf5 0000 0000 0000 0000
00000050: 00eb e4f6 e0c8 2ec1 022f fe02 f9f7 fbed
00000060: f1ef d9fb 0f27 fc1f 1bf1 011e c5ec 1bfb
00000070: fa01 fafa f3de 3425 f40c 03dd 0117 2be8
00000080: e202 e504 3513 1912 f1cb db12 e314 f1d8
00000090: 06f7 0f03 0202 150c 0c23 f1e9 18f3 ee26
000000a0: f7d0 c8ed f4e5 0103 f507 03ff ffe2 03f0
000000b0: f3eb 01f0 0706 060b 120c 1412 0795 0b2e
000000c0: 2121 0e3e f70a 260d 2405 0106 ee00 f319
000000d0: 0836 0813 0c28 1521 ff07 ca0f f9cc fa06
000000e0: 02ed 0d34 0702 feff 1009 f1f7 eff9 fff4
000000f0: f5ec 04fa f82c f3e6 1c23 1626 1d02 1b0a
-55 7 18 8 12 2 -50 7
18 -61 -35 69 -40 5 30 -29
7 21 0 14 58 -24 -4 21
-3 -10 28 -28 7 -23 7 20
-2 20 55 13 -24 -6 7 -12
-23 1 60 14 25 3 12 2
1 91 20 -2 -7 -2 -4 2
-10 16 41 -8 15 40 4 -8
35 73 -26 -14 53 -28 -20 -11
0 0 0 0 0 0 0 0
0 -21 -28 -10 -32 -56 46 -63
2 47 -2 2 -7 -9 -5 -19
-15 -17 -39 -5 15 39 -4 31
27 -15 1 30 -59 -20 27 -5
-6 1 -6 -6 -13 -34 52 37
-12 12 3 -35 1 23 43 -24
-30 2 -27 4 53 19 25 18
-15 -53 -37 18 -29 20 -15 -40
6 -9 15 3 2 2 21 12
12 35 -15 -23 24 -13 -18 38
-9 -48 -56 -19 -12 -27 1 3
-11 7 3 -1 -1 -30 3 -16
-13 -21 1 -16 7 6 6 11
18 12 20 18 7 -107 11 46
33 33 14 62 -9 10 38 13
36 5 1 6 -18 0 -13 25
8 54 8 19 12 40 21 33
-1 7 -54 15 -7 -52 -6 6
2 -19 13 52 7 2 -2 -1
16 9 -15 -9 -17 -7 -1 -12
-11 -20 4 -6 -8 44 -13 -26
28 35 22 38 29 2 27 10

backbone.model5.conv2.conv1.weight_quantized i1 [64, 64, 1, 1]
00000000: 09fc 1106 03e6 08ec 0006 fe00 0a0f 1c06
00000010: fa0a 070b 06f8 ed04 0723 0304 0010 fb04
00000020: dc16 0604 02f3 f212 0812 0503 05fd fafd
00000030: 0903 ed01 1507 0df3 f714 0df5 0603 0b0d
00000040: fcf6 0704 fc06 f8f4 00fe fffa 0605 0206
00000050: 0702 fa05 fee7 06ed 0700 15f4 f9f7 f10a
00000060: 0cff ff07 f9e5 ed18 13fa ff01 f9fb 03fc
00000070: ec02 0426 0010 02fb e8f4 04fe 08f8 f9fd
00000080: f2fa 0806 f2fe fef8 00fb fcfa 00f5 1be8
00000090: 1016 00fa fd15 eefe 0307 f5f7 02fb f8fc
000000a0: fc04 0f0f fef3 0edd fdfc fbe6 0af6 fa10
000000b0: fa02 f705 e5e9 0cf6 0b02 00f2 fbeb 0113
000000c0: 040d f107 0406 eaf6 00fb 01fd 0afe 0006
000000d0: f3f3 d20e 0afd f805 0407 fdf9 0cf0 f80d
000000e0: f4fd e603 05fc f803 0408 e8f7 fafd fc0a
000000f0: 0909 0605 f7e7 ff06 0303 fb05 13f0 02f6
9 -4 17 6 3 -26 8 -20
0 6 -2 0 10 15 28 6
-6 10 7 11 6 -8 -19 4
7 35 3 4 0 16 -5 4
-36 22 6 4 2 -13 -14 18
8 18 5 3 5 -3 -6 -3
9 3 -19 1 21 7 13 -13
-9 20 13 -11 6 3 11 13
-4 -10 7 4 -4 6 -8 -12
0 -2 -1 -6 6 5 2 6
7 2 -6 5 -2 -25 6 -19
7 0 21 -12 -7 -9 -15 10
12 -1 -1 7 -7 -27 -19 24
19 -6 -1 1 -7 -5 3 -4
-20 2 4 38 0 16 2 -5
-24 -12 4 -2 8 -8 -7 -3
-14 -6 8 6 -14 -2 -2 -8
0 -5 -4 -6 0 -11 27 -24
16 22 0 -6 -3 21 -18 -2
3 7 -11 -9 2 -5 -8 -4
-4 4 15 15 -2 -13 14 -35
-3 -4 -5 -26 10 -10 -6 16
-6 2 -9 5 -27 -23 12 -10
11 2 0 -14 -5 -21 1 19
4 13 -15 7 4 6 -22 -10
0 -5 1 -3 10 -2 0 6
-13 -13 -46 14 10 -3 -8 5
4 7 -3 -7 12 -16 -8 13
-12 -3 -26 3 5 -4 -8 3
4 8 -24 -9 -6 -3 -4 10
9 9 6 5 -9 -25 -1 6
3 3 -5 5 19 -16 2 -10

453_quantized i1 [64, 1, 3, 3]
00000000: f7e8 b90c 03f5 1fff c5c2 edd6 0305 f124
00000010: f7ee 5612 181a fff9 1405 0816 4846 13ea
00000020: e40b e7f2 f317 3a1b 1c0d 37f6 ceda d8e4
00000030: fddd e1e0 f7c4 040c 0b0b 0208 1610 1c33
00000040: 03e3 18f3 f736 fe0b 2c00 2503 f8fd 3b04
00000050: 32ed e6d4 f5d3 dad2 0bf6 f2f0 ecfb eced
00000060: f6ef e4ad e9dc f319 16ca f9bf e324 fc40
00000070: fc11 ea13 1524 1b59 f602 0021 0a1c c200
00000080: 09e5 090c e6ea f1d6 f9f4 ff03 fddf f7f5
00000090: 2018 0cfe e901 570f 1b12 fe09 06f2 1845
000000a0: 0e22 d9f4 ec10 f0e2 2216 35f5 02c6 fbfd
000000b0: eef8 f1cf c402 b907 1812 070a fe1e 091e
000000c0: 0a0a 0a13 1b05 e2c9 ec0c d4c3 c7d5 e408
000000d0: 03fe 030b e5eb c0cc f5e8 f8f6 fdf6 f6e7
000000e0: c4d6 fec0 0727 13c4 f28d ef05 08de f201
000000f0: d1ee e411 030f 0b07 fc11 061a 0225 251a
-9 -24 -71 12 3 -11 31 -1
-59 -62 -19 -42 3 5 -15 36
-9 -18 86 18 24 26 -1 -7
20 5 8 22 72 70 19 -22
-28 11 -25 -14 -13 23 58 27
28 13 55 -10 -50 -38 -40 -28
-3 -35 -31 -32 -9 -60 4 12
11 11 2 8 22 16 28 51
3 -29 24 -13 -9 54 -2 11
44 0 37 3 -8 -3 59 4
50 -19 -26 -44 -11 -45 -38 -46
11 -10 -14 -16 -20 -5 -20 -19
-10 -17 -28 -83 -23 -36 -13 25
22 -54 -7 -65 -29 36 -4 64
-4 17 -22 19 21 36 27 89
-10 2 0 33 10 28 -62 0
9 -27 9 12 -26 -22 -15 -42
-7 -12 -1 3 -3 -33 -9 -11
32 24 12 -2 -23 1 87 15
27 18 -2 9 6 -14 24 69
14 34 -39 -12 -20 16 -16 -30
34 22 53 -11 2 -58 -5 -3
-18 -8 -15 -49 -60 2 -71 7
24 18 7 10 -2 30 9 30
10 10 10 19 27 5 -30 -55
-20 12 -44 -61 -57 -43 -28 8
3 -2 3 11 -27 -21 -64 -52
-11 -24 -8 -10 -3 -10 -10 -25
-60 -42 -2 -64 7 39 19 -60
-14 -115 -17 5 8 -34 -14 1
-47 -18 -28 17 3 15 11 7
-4 17 6 26 2 37 37 26

neck.lateral_convs.2.conv1.weight_quantized i1 [64, 64, 1, 1]
00000000: d6fb f604 f7e3 f70a 02ee 04ef 1905 e533
00000010: 10ff e90b 11d0 020b 01f3 2216 0820 10f6
00000020: 1415 fa0e 1805 1ef4 0bf5 ed1f fcfd e5f0
00000030: 1027 e1f4 011c d9d0 fefa f0f9 ea30 0df3
00000040: 0507 edf8 f7e5 f4f3 f5f1 0601 ee0e 19d3
00000050: 08fa fe0c 0209 fcf8 e3ff 06f3 e805 fefa
00000060: 03f6 0dff 02f5 0303 00fc f915 faf8 fe01
00000070: f100 0207 0601 f1e4 fc00 f00b fb0b 12d1
00000080: f900 e907 041a 13fb 1cf2 0cd0 f2f4 00fd
00000090: c405 01fd 0301 cffa 0513 01f9 fbef f9be
000000a0: dbf2 060d 020e f70e f7e6 f2f7 0508 e708
000000b0: df05 f6ff f702 f6f3 fbfe 06e3 1013 fdff
000000c0: 0e14 0712 0803 edfd ff00 fe0d 1610 13fe
000000d0: 0ffa f52b f41b 0d08 1802 faf9 2f09 10fc
000000e0: 12fe f30a 1d12 1211 1ce9 e51e 0901 d136
000000f0: 03fb d30a fffb 0ace 1d0d f025 f534 0d0d
-42 -5 -10 4 -9 -29 -9 10
2 -18 4 -17 25 5 -27 51
16 -1 -23 11 17 -48 2 11
1 -13 34 22 8 32 16 -10
20 21 -6 14 24 5 30 -12
11 -11 -19 31 -4 -3 -27 -16
16 39 -31 -12 1 28 -39 -48
-2 -6 -16 -7 -22 48 13 -13
5 7 -19 -8 -9 -27 -12 -13
-11 -15 6 1 -18 14 25 -45
8 -6 -2 12 2 9 -4 -8
-29 -1 6 -13 -24 5 -2 -6
3 -10 13 -1 2 -11 3 3
0 -4 -7 21 -6 -8 -2 1
-15 0 2 7 6 1 -15 -28
-4 0 -16 11 -5 11 18 -47
-7 0 -23 7 4 26 19 -5
28 -14 12 -48 -14 -12 0 -3
-60 5 1 -3 3 1 -49 -6
5 19 1 -7 -5 -17 -7 -66
-37 -14 6 13 2 14 -9 14
-9 -26 -14 -9 5 8 -25 8
-33 5 -10 -1 -9 2 -10 -13
-5 -2 6 -29 16 19 -3 -1
14 20 7 18 8 3 -19 -3
-1 0 -2 13 22 16 19 -2
15 -6 -11 43 -12 27 13 8
24 2 -6 -7 47 9 16 -4
18 -2 -13 10 29 18 18 17
28 -23 -27 30 9 1 -47 54
3 -5 -45 10 -1 -5 10 -50
29 13 -16 37 -11 52 13 13

456_quantized i1 [64, 1, 3, 3]
00000000: 170b 0906 f103 150d 1324 f908 0c0f 0626
00000010: 00ff f706 1cfa 181e 0e23 0102 f8f5 fcbf
00000020: 10ff 04ed ebff 00e2 fe13 eb0e 0500 050f
00000030: 020a feff 0909 1b05 020d 05f6 13f6 fd12
00000040: 100b 0d22 080f 0d15 07f8 0b1f eff5 3816
00000050: f8ea f8e3 060a 00e0 f7e3 272f 1d18 04f0
00000060: 0bee 04f6 0de7 010d cfcc c803 e4f7 03e7
00000070: fe0a ecee 0605 120b 0c11 0908 fc0e 0d1d
00000080: f728 03fc 1ce6 fd01 ebf4 0deb e000 faf5
00000090: 0929 1b08 10fc efe4 eb0c fc2a 0208 f710
000000a0: 0524 daef f6f9 ec04 f4eb fdfb feeb 0f07
000000b0: e9fa 03f4 1601 fa0c 0308 1afc 02f9 00fb
000000c0: ede3 ed05 ff05 cff9 f9fa 0502 e1f7 f4d4
000000d0: f4f7 e6e9 0ff8 f4dd 0a1a f608 13ef fb19
000000e0: fbe7 f7fa f106 fbdc f9f8 0708 200c f806
000000f0: 080a 40ec fb12 e51d 0092 edf8 1832 12fd
23 11 9 6 -15 3 21 13
19 36 -7 8 12 15 6 38
0 -1 -9 6 28 -6 24 30
14 35 1 2 -8 -11 -4 -65
16 -1 4 -19 -21 -1 0 -30
-2 19 -21 14 5 0 5 15
2 10 -2 -1 9 9 27 5
2 13 5 -10 19 -10 -3 18
16 11 13 34 8 15 13 21
7 -8 11 31 -17 -11 56 22
-8 -22 -8 -29 6 10 0 -32
-9 -29 39 47 29 24 4 -16
11 -18 4 -10 13 -25 1 13
-49 -52 -56 3 -28 -9 3 -25
-2 10 -20 -18 6 5 18 11
12 17 9 8 -4 14 13 29
-9 40 3 -4 28 -26 -3 1
-21 -12 13 -21 -32 0 -6 -11
9 41 27 8 16 -4 -17 -28
-21 12 -4 42 2 8 -9 16
5 36 -38 -17 -10 -7 -20 4
-12 -21 -3 -5 -2 -21 15 7
-23 -6 3 -12 22 1 -6 12
3 8 26 -4 2 -7 0 -5
-19 -29 -19 5 -1 5 -49 -7
-7 -6 5 2 -31 -9 -12 -44
-12 -9 -26 -23 15 -8 -12 -35
10 26 -10 8 19 -17 -5 25
-5 -25 -9 -6 -15 6 -5 -36
-7 -8 7 8 32 12 -8 6
8 10 64 -20 -5 18 -27 29
0 -110 -19 -8 24 50 18 -3

neck.lateral_convs.1.conv1.weight_quantized i1 [64, 64, 1, 1]
00000000: 0831 fc18 2dfd f332 f41d f4f8 0df2 0af6
00000010: 0130 f02e de17 0700 fe18 ede8 f204 0a1e
00000020: 14f6 23f5 fcf0 0fde 0af7 f7e7 13fa 2026
00000030: f122 04f4 ee1e fd08 db05 faf6 0bfc 12f7
00000040: 0015 e5ec 1d05 f0f8 f4e7 2208 fa01 f3fc
00000050: 00fe fc06 dbfa 0afc eaed 07f1 04e7 c04e
00000060: ef1b 062a f3fa e7f6 17a4 16fa f60f 1b30
00000070: 1124 d9fe e2fb 1108 0300 11f5 f4fc f4e5
00000080: f025 0d02 f6fc effd 0e0b 020e fee6 0110
00000090: 080c 1314 01f5 f6e7 f705 f213 1609 0d07
000000a0: ed04 1109 005d e8de 071c ed11 0611 1803
000000b0: fbe7 d9d3 0220 e716 0409 faf9 06fb 0207
000000c0: eb07 0d08 f908 feed 2d0c fc15 160a 1df7
000000d0: e91a 06df efee 080a f8dd 05f7 dcfa 07ca
000000e0: f8e8 37fe 04f6 ef0e 04b4 e919 04ee fcf7
000000f0: f80d 0ced 0a0a 040c 050c 070e 160a eafc
8 49 -4 24 45 -3 -13 50
-12 29 -12 -8 13 -14 10 -10
1 48 -16 46 -34 23 7 0
-2 24 -19 -24 -14 4 10 30
20 -10 35 -11 -4 -16 15 -34
10 -9 -9 -25 19 -6 32 38
-15 34 4 -12 -18 30 -3 8
-37 5 -6 -10 11 -4 18 -9
0 21 -27 -20 29 5 -16 -8
-12 -25 34 8 -6 1 -13 -4
0 -2 -4 6 -37 -6 10 -4
-22 -19 7 -15 4 -25 -64 78
-17 27 6 42 -13 -6 -25 -10
23 -92 22 -6 -10 15 27 48
17 36 -39 -2 -30 -5 17 8
3 0 17 -11 -12 -4 -12 -27
-16 37 13 2 -10 -4 -17 -3
14 11 2 14 -2 -26 1 16
8 12 19 20 1 -11 -10 -25
-9 5 -14 19 22 9 13 7
-19 4 17 9 0 93 -24 -34
7 28 -19 17 6 17 24 3
-5 -25 -39 -45 2 32 -25 22
4 9 -6 -7 6 -5 2 7
-21 7 13 8 -7 8 -2 -19
45 12 -4 21 22 10 29 -9
-23 26 6 -33 -17 -18 8 10
-8 -35 5 -9 -36 -6 7 -54
-8 -24 55 -2 4 -10 -17 14
4 -76 -23 25 4 -18 -4 -9
-8 13 12 -19 10 10 4 12
5 12 7 14 22 10 -22 -4

459_quantized i1 [64, 1, 3, 3]
00000000: fc02 01f2 eaf4 fdf5 f9f1 0303 f5fa f8e4
00000010: f2f6 001d 0ff4 f87f 0d1d 1efa fc23 052a
00000020: 213f 37d6 f79c 00f5 3ffa f707 fe1d 0004
00000030: 0100 fdfe 8ce3 f041 082d 35f0 1101 e9f1
00000040: 0afe 0046 05f9 0d00 fefc 01e7 c603 fde9
00000050: 03fe f609 d7bd 13fc 01e9 f5e9 f0e1 36e8
00000060: 00e7 ecfd edfa f5d2 0c09 11ff cca8 e413
00000070: fc04 0efd 05fc e6e8 f622 d501 08f5 2806
00000080: f919 45da 0007 e9e4 b9ea fcf7 e5ff 0704
00000090: 2203 0e1b 26ea 221d da03 0df6 21de c700
000000a0: f3e4 fd00 fe0c 3cf6 ff0b 0322 2016 18f6
000000b0: 1112 f920 0504 0202 3008 0a0a 0a09 f4e4
000000c0: 0ff6 ec0a 04f4 f50c f5cd 71c3 eaec ec14
000000d0: 0614 ff0a 0609 0d08 0cf1 07f8 8f07 f5f3
000000e0: e026 e22e 5b9d 7231 b01d f6d5 fb0f f7f6
000000f0: f801 fcee 0e14 f3fa 55fd 130a 03d6 0200
-4 2 1 -14 -22 -12 -3 -11
-7 -15 3 3 -11 -6 -8 -28
-14 -10 0 29 15 -12 -8 127
13 29 30 -6 -4 35 5 42
33 63 55 -42 -9 -100 0 -11
63 -6 -9 7 -2 29 0 4
1 0 -3 -2 -116 -29 -16 65
8 45 53 -16 17 1 -23 -15
10 -2 0 70 5 -7 13 0
-2 -4 1 -25 -58 3 -3 -23
3 -2 -10 9 -41 -67 19 -4
1 -23 -11 -23 -16 -31 54 -24
0 -25 -20 -3 -19 -6 -11 -46
12 9 17 -1 -52 -88 -28 19
-4 4 14 -3 5 -4 -26 -24
-10 34 -43 1 8 -11 40 6
-7 25 69 -38 0 7 -23 -28
-71 -22 -4 -9 -27 -1 7 4
34 3 14 27 38 -22 34 29
-38 3 13 -10 33 -34 -57 0
-13 -28 -3 0 -2 12 60 -10
-1 11 3 34 32 22 24 -10
17 18 -7 32 5 4 2 2
48 8 10 10 10 9 -12 -28
15 -10 -20 10 4 -12 -11 12
-11 -51 113 -61 -22 -20 -20 20
6 20 -1 10 6 9 13 8
12 -15 7 -8 -113 7 -11 -13
-32 38 -30 46 91 -99 114 49
-80 29 -10 -43 -5 15 -9 -10
-8 1 -4 -18 14 20 -13 -6
85 -3 19 10 3 -42 2 0

neck.lateral_convs.0.conv1.weight_quantized i1 [64, 64, 1, 1]
00000000: ff02 0106 09d6 fd28 fc0b e8e7 fd04 00fb
00000010: 0641 100c 08f5 0114 f70a 010d 02f9 0107
00000020: 13fd ef05 0819 feea f920 f4de e300 1e1c
00000030: f016 fc08 f12b 0cfc f4f4 10f3 01ff 1fd7
00000040: d302 ffeb 0616 010e 08f8 0206 fc0b f3d8
00000050: 0525 12f1 13ec 0e26 04f8 d204 29fe 3b13
00000060: 2804 ebed f903 eef5 1c06 59f6 fada 7f0b
00000070: 2f10 0147 ff22 480c 01e5 4fdf e6e7 0e0a
00000080: 0105 edec f7fb e004 f4dc 0bf7 f1d6 cb0a
00000090: 1ce4 d503 f9e7 0407 c60c 0e0b 031d 03ec
000000a0: fdfd f824 20f9 fdfd f202 e4ec fc03 f400
000000b0: 03fa 0bed 0cc3 e8f7 faf6 1205 0d4c fe0c
000000c0: 090a 0504 01ff 09ee ed06 1ae0 1312 1021
000000d0: 02fe 0b04 1301 f7ec 070a 15fe 0d0a cdfe
000000e0: 0801 f7ed e906 2119 fbb9 f805 16f4 dde1
000000f0: d207 07ea f50c feda 19ed fd2b e600 1cce
-1 2 1 6 9 -42 -3 40
-4 11 -24 -25 -3 4 0 -5
6 65 16 12 8 -11 1 20
-9 10 1 13 2 -7 1 7
19 -3 -17 5 8 25 -2 -22
-7 32 -12 -34 -29 0 30 28
-16 22 -4 8 -15 43 12 -4
-12 -12 16 -13 1 -1 31 -41
-45 2 -1 -21 6 22 1 14
8 -8 2 6 -4 11 -13 -40
5 37 18 -15 19 -20 14 38
4 -8 -46 4 41 -2 59 19
40 4 -21 -19 -7 3 -18 -11
28 6 89 -10 -6 -38 127 11
47 16 1 71 -1 34 72 12
1 -27 79 -33 -26 -25 14 10
1 5 -19 -20 -9 -5 -32 4
-12 -36 11 -9 -15 -42 -53 10
28 -28 -43 3 -7 -25 4 7
-58 12 14 11 3 29 3 -20
-3 -3 -8 36 32 -7 -3 -3
-14 2 -28 -20 -4 3 -12 0
3 -6 11 -19 12 -61 -24 -9
-6 -10 18 5 13 76 -2 12
9 10 5 4 1 -1 9 -18
-19 6 26 -32 19 18 16 33
2 -2 11 4 19 1 -9 -20
7 10 21 -2 13 10 -51 -2
8 1 -9 -19 -23 6 33 25
-5 -71 -8 5 22 -12 -35 -31
-46 7 7 -22 -11 12 -2 -38
25 -19 -3 43 -26 0 28 -50

462_quantized i1 [64, 1, 3, 3]
00000000: f7f5 eee3 d8e6 161e 16fc fcfb fcff fcff
00000010: ffff 0207 0e07 0406 0508 0613 1015 080e
00000020: 17fe 01f9 f8ed fbf9 dffb 1222 0709 1afb
00000030: 130c 0a1c 16eb 0209 0110 1f0d 0b16 0807
00000040: 0609 0703 0803 0406 f8f9 feeb f3f0 fff5
00000050: fafc 09fd 0109 0400 0803 f2ed fa10 7f08
00000060: fefc 01fa f2f7 f5fc f8fc f8fc f8fd fc04
00000070: ffda fbdd f307 0c0b 0508 0607 0a0b 1916
00000080: 1913 0111 f900 fbff fa02 fa07 f80a 200b
00000090: 05ff 02ff 39fd fefc 0bff fcfd fbf8 fafe
000000a0: fafb fdd9 24e0 e73b f8d1 0303 0b00 030c
000000b0: 0503 0401 0f0a 0c08 1008 0211 fffe 03f8
000000c0: 00fe f801 f9fd fcfb fcff ffff fcfc fcdb
000000d0: 5ed7 1556 1ae1 41ce 0ef8 0935 dc43 06fc
000000e0: 0afb f7fa 0a18 01ff 0e00 e8e0 f1ed f8ed
000000f0: fdf0 01f6 1d0b 000d 1400 0109 031d f502
-9 -11 -18 -29 -40 -26 22 30
22 -4 -4 -5 -4 -1 -4 -1
-1 -1 2 7 14 7 4 6
5 8 6 19 16 21 8 14
23 -2 1 -7 -8 -19 -5 -7
-33 -5 18 34 7 9 26 -5
19 12 10 28 22 -21 2 9
1 16 31 13 11 22 8 7
6 9 7 3 8 3 4 6
-8 -7 -2 -21 -13 -16 -1 -11
-6 -4 9 -3 1 9 4 0
8 3 -14 -19 -6 16 127 8
-2 -4 1 -6 -14 -9 -11 -4
-8 -4 -8 -4 -8 -3 -4 4
-1 -38 -5 -35 -13 7 12 11
5 8 6 7 10 11 25 22
25 19 1 17 -7 0 -5 -1
-6 2 -6 7 -8 10 32 11
5 -1 2 -1 57 -3 -2 -4
11 -1 -4 -3 -5 -8 -6 -2
-6 -5 -3 -39 36 -32 -25 59
-8 -47 3 3 11 0 3 12
5 3 4 1 15 10 12 8
16 8 2 17 -1 -2 3 -8
0 -2 -8 1 -7 -3 -4 -5
-4 -1 -1 -1 -4 -4 -4 -37
94 -41 21 86 26 -31 65 -50
14 -8 9 53 -36 67 6 -4
10 -5 -9 -6 10 24 1 -1
14 0 -24 -32 -15 -19 -8 -19
-3 -16 1 -10 29 11 0 13
20 0 1 9 3 29 -11 2

bbox_head.multi_level_cls.0.conv1.weight_quantized i1 [1, 64, 1, 1]
00000000: 00f2 1df7 0ef0 cfe8 28b7 54ea f8fb 08aa
00000010: 8131 3508 e5f9 1f5f 2123 3ef3 6526 20ef
00000020: 11de d52b 0326 493c 242b fc7b ce32 fffb
00000030: 26f6 f7a5 fdfb 19d4 0ce9 e7db fcf9 e30b
0 -14 29 -9 14 -16 -49 -24
40 -73 84 -22 -8 -5 8 -86
-127 49 53 8 -27 -7 31 95
33 35 62 -13 101 38 32 -17
17 -34 -43 43 3 38 73 60
36 43 -4 123 -50 50 -1 -5
38 -10 -9 -91 -3 -5 25 -44
12 -23 -25 -37 -4 -7 -29 11

bbox_head.multi_level_cls.0.conv2.weight_quantized i1 [1, 1, 3, 3]
00000000: 3d70 3f79 7e69 4f7f 3c
61 112 63 121 126 105 79 127
60

bbox_head.multi_level_cls.1.conv1.weight_quantized i1 [1, 64, 1, 1]
00000000: 1113 1b02 fbfc ff01 e501 0cf2 00f6 f101
00000010: 01f8 d705 3216 da06 0501 e206 10f5 0d01
00000020: 000b 0a0d 054b 1033 0e04 81f9 08f7 89e2
00000030: bc01 0a1b fb03 b0f1 e952 bf04 0006 fcfe
17 19 27 2 -5 -4 -1 1
-27 1 12 -14 0 -10 -15 1
1 -8 -41 5 50 22 -38 6
5 1 -30 6 16 -11 13 1
0 11 10 13 5 75 16 51
14 4 -127 -7 8 -9 -119 -30
-68 1 10 27 -5 3 -80 -15
-23 82 -65 4 0 6 -4 -2

bbox_head.multi_level_cls.1.conv2.weight_quantized i1 [1, 1, 3, 3]
00000000: f0ab f9ec 81fc 02e4 00
-16 -85 -7 -20 -127 -4 2 -28
0

bbox_head.multi_level_cls.2.conv1.weight_quantized i1 [1, 64, 1, 1]
00000000: 06de 07fe f8ea f37f e01a dbdd f007 e028
00000010: ff09 fde8 00de ff1d d0fc faea bbc0 ff34
00000020: f71c c2f9 f71f f9dc 09f9 f01c 0adf e2ff
00000030: fc26 003d e745 e613 ec0b 0ed6 e6ef 240a
6 -34 7 -2 -8 -22 -13 127
-32 26 -37 -35 -16 7 -32 40
-1 9 -3 -24 0 -34 -1 29
-48 -4 -6 -22 -69 -64 -1 52
-9 28 -62 -7 -9 31 -7 -36
9 -7 -16 28 10 -33 -30 -1
-4 38 0 61 -25 69 -26 19
-20 11 14 -42 -26 -17 36 10

bbox_head.multi_level_cls.2.conv2.weight_quantized i1 [1, 1, 3, 3]
00000000: d9b7 e2b7 81af d58c d1
-39 -73 -30 -73 -127 -81 -43 -116
-47

bbox_head.multi_level_bbox.0.conv1.weight_quantized i1 [4, 64, 1, 1]
00000000: 0eff 0201 041a 0bf3 0930 1014 06de 0d06
00000010: 2bde f503 1703 b1ff c7f4 1027 e6fc 3bf7
00000020: 2f39 14fe c21e f5fa f9fe 0cf3 0efb 220c
00000030: 1c0c a602 0d30 0e3d 140c fd02 e721 0309
00000040: 1a06 0348 3804 47ed 1837 e404 03f1 fb36
00000050: 1593 0310 1404 1fff faf6 0c09 25e8 ee34
00000060: 180c 2633 33d1 fd09 d4f9 17e4 1404 0c0d
00000070: 1e13 adfe 0906 0d10 11f4 e9f7 fa03 7705
00000080: 06de e70b 0cfa fbf4 fd11 0d04 0207 f20e
00000090: 02f2 05fe f46b bdfa 2313 00f4 0802 dfff
000000a0: fd3a ea22 f32a 0305 fb01 0e0a 0401 fffb
000000b0: bdff f36d 04f4 0604 06ef 0a04 e466 f9fe
000000c0: 02b0 f6f4 1dff 09f9 fd3c 0f01 faf5 022a
000000d0: 0dd8 ff0a f82b f5f8 0948 fd01 fe04 f6fa
000000e0: fd13 e02f 04e9 05fa fa03 0004 0304 00fd
000000f0: abfd f47f 07f4 fe01 ef29 f9ff e757 ec00
14 -1 2 1 4 26 11 -13
9 48 16 20 6 -34 13 6
43 -34 -11 3 23 3 -79 -1
-57 -12 16 39 -26 -4 59 -9
47 57 20 -2 -62 30 -11 -6
-7 -2 12 -13 14 -5 34 12
28 12 -90 2 13 48 14 61
20 12 -3 2 -25 33 3 9
26 6 3 72 56 4 71 -19
24 55 -28 4 3 -15 -5 54
21 -109 3 16 20 4 31 -1
-6 -10 12 9 37 -24 -18 52
24 12 38 51 51 -47 -3 9
-44 -7 23 -28 20 4 12 13
30 19 -83 -2 9 6 13 16
17 -12 -23 -9 -6 3 119 5
6 -34 -25 11 12 -6 -5 -12
-3 17 13 4 2 7 -14 14
2 -14 5 -2 -12 107 -67 -6
35 19 0 -12 8 2 -33 -1
-3 58 -22 34 -13 42 3 5
-5 1 14 10 4 1 -1 -5
-67 -1 -13 109 4 -12 6 4
6 -17 10 4 -28 102 -7 -2
2 -80 -10 -12 29 -1 9 -7
-3 60 15 1 -6 -11 2 42
13 -40 -1 10 -8 43 -11 -8
9 72 -3 1 -2 4 -10 -6
-3 19 -32 47 4 -23 5 -6
-6 3 0 4 3 4 0 -3
-85 -3 -12 127 7 -12 -2 1
-17 41 -7 -1 -25 87 -20 0

bbox_head.multi_level_bbox.0.conv2.weight_quantized i1 [4, 1, 3, 3]
00000000: 18f4 f277 e3af 11f8 f807 7f07 fb9f fcf9
00000010: d6f7 f5f1 01f0 e3f3 fde8 f6fa f5fd f1e6
00000020: f0fa e9f7
24 -12 -14 119 -29 -81 17 -8
-8 7 127 7 -5 -97 -4 -7
-42 -9 -11 -15 1 -16 -29 -13
-3 -24 -10 -6 -11 -3 -15 -26
-16 -6 -23 -9

bbox_head.multi_level_bbox.1.conv1.weight_quantized i1 [4, 64, 1, 1]
00000000: 04fd f7ff 04ff fa00 0208 fff7 00fa 0d00
00000010: 01f6 09ff f50b ce01 0009 f104 1001 03f4
00000020: 05fc 0114 fdf2 fc0a 0101 f70a 01f5 fd04
00000030: fd06 f7fc f406 007f 1100 f1fb 0001 02fe
00000040: f700 fe02 06fa 06fb 0aff 0504 0303 0201
00000050: ff07 08ff 0300 ff04 ff00 fe04 defd f705
00000060: ff00 b603 fed8 feda fcff 2cea 0102 120b
00000070: 05fe fb07 f8ff f900 f8fb 0cfa 00ff 0409
00000080: ff01 04fb 0e00 feff f907 000c fff4 04fd
00000090: f9fb f3fb 3015 04fd 0816 defc 0ffc f1fc
000000a0: 00f3 0b04 fdee 070d 0501 ddf4 0b0f 09fb
000000b0: f6fd fa44 ef05 030c f025 e8ea 0002 f8fd
000000c0: 0001 01ff ff02 fd00 f7ef ff09 fbff f3fc
000000d0: 02f4 ee01 2706 03f8 faf8 c9ff 0cfd 22fd
000000e0: 00fc 0904 fff1 0602 0305 db04 0410 04f3
000000f0: f5ff 0444 f7f8 0705 f222 f4ed 0001 f4fe
4 -3 -9 -1 4 -1 -6 0
2 8 -1 -9 0 -6 13 0
1 -10 9 -1 -11 11 -50 1
0 9 -15 4 16 1 3 -12
5 -4 1 20 -3 -14 -4 10
1 1 -9 10 1 -11 -3 4
-3 6 -9 -4 -12 6 0 127
17 0 -15 -5 0 1 2 -2
-9 0 -2 2 6 -6 6 -5
10 -1 5 4 3 3 2 1
-1 7 8 -1 3 0 -1 4
-1 0 -2 4 -34 -3 -9 5
-1 0 -74 3 -2 -40 -2 -38
-4 -1 44 -22 1 2 18 11
5 -2 -5 7 -8 -1 -7 0
-8 -5 12 -6 0 -1 4 9
-1 1 4 -5 14 0 -2 -1
-7 7 0 12 -1 -12 4 -3
-7 -5 -13 -5 48 21 4 -3
8 22 -34 -4 15 -4 -15 -4
0 -13 11 4 -3 -18 7 13
5 1 -35 -12 11 15 9 -5
-10 -3 -6 68 -17 5 3 12
-16 37 -24 -22 0 2 -8 -3
0 1 1 -1 -1 2 -3 0
-9 -17 -1 9 -5 -1 -13 -4
2 -12 -18 1 39 6 3 -8
-6 -8 -55 -1 12 -3 34 -3
0 -4 9 4 -1 -15 6 2
3 5 -37 4 4 16 4 -13
-11 -1 4 68 -9 -8 7 5
-14 34 -12 -19 0 1 -12 -2
